model/net.pth (torch_old, 270566 bytes, 10 tensors)

weight f4 [6, 3, 5, 5]
00000000: 6254 bebd 71db d6bd 9954 6abc 9d09 093e
00000010: d711 cabd d171 80bc 44ff 2abc a893 d93d
00000020: 5d6c a53d d447 a3bc ee25 4c3d 2099 7e3d
00000030: 749b a93d 15ec 39bd 0f65 7cbc 36a9 223d
00000040: f0c2 023e 4237 523d 2a4b 0d3e 2754 963d
00000050: 40f6 b03d b612 b83d 4c48 b33d 07ac 6a3d
00000060: cea7 8e3d 1b2b 9ebd 5a40 693d ca4e 9c3d
00000070: a42a 8fbd 85d9 57ba e85a 0ebc eb6d 143e
00000080: 07ee d73d ae71 e6bd 762b 7bbe 438e 03bd
00000090: 9797 1a3e 47ed a0bc 3b70 23bd f5cd 4bbe
000000a0: fc40 c73d 6978 6dba b92a 683d ce1d 99bd
000000b0: 8570 22be be73 f33c 0883 41bd a16b 0ebc
000000c0: f1ab a1bd 95f4 6abd f9f4 a8bc 7841 f43d
000000d0: 964b 733e 97ea 073e 5799 f93d 4d70 3d3e
000000e0: 325d 323e 2edd 903d e262 0e3e 2a2f 65bd
000000f0: 1672 f33c 9c3b 623e eccb 153e a3be 763d
00000100: d650 40be 244e 043a 244b d83d f4c6 4c3d
00000110: 7f75 f2bd 234b 20be c2a6 943c 1393 eaba
00000120: 30fb 073d 1c84 e1bc 88c8 45ba 0e9d 7abd
00000130: 9471 0fbd fb0b b3ba c390 2fbe d64b b43b
00000140: 836e 63be d75f 8cbe 4a1c 5fbe 2344 5ebe
00000150: 9e06 08be 9778 7dbe df2c a8be faca 32be
00000160: da6c 47be 7e7b ecbd c24d 0cbe bb27 8cbe
00000170: c09e 3bbe 56e0 d6bd b729 4abe 962b 61be
00000180: 5e1a 17be d8e6 30be 942f 1fbe e809 18be
00000190: f17f b13d 40b8 89bc a79d c73d 387b 9d3d
000001a0: b91c 59bd 41a0 8fbd ff1a 033e baa6 86b9
000001b0: 7350 c83d d87e 083c c9e5 5b3d 4682 d23d
000001c0: 93e6 d93d 2916 06bc c287 343d f507 343d
000001d0: 5415 9f3d 7810 6f3d 15c3 b2bc 28bb 0cbd
000001e0: 5414 5bbe d86f ecbd 1c00 84ba c208 acbd
000001f0: 3c41 0d3d 7a33 533d c51d 7c3d 2bba 3a3e
00000200: ba77 863e 7ad6 893e 6757 b03d f310 533e
00000210: 472a 8c3e 1df4 8d3e 2a8e 5d3e 46f0 5c3e
00000220: d03f 7d3e a6e6 513e 8a72 2f3e f09d c53d
00000230: 86f6 9e3b 9bc9 f33d 375d 963d e7c9 873e
00000240: c2ca 6a3e 12d5 b9bd 76eb da3c 8f63 813d
00000250: 2e51 5c3e 0564 433e 3440 69bd 81b6 da3d
00000260: 8752 993b 8852 b1bb d203 03be a4ec 72be
00000270: 2845 50be 9198 66be 69a7 e1bd 3562 4ebe
00000280: efe3 dfbe 29a3 91be ba46 a6be 5257 83be
00000290: da8a 8cbe 6a0d 13bc 1b78 c6bc 09bc b03d
000002a0: 5bc1 44bb 9311 3f3d a2c7 db3e 983d de3e
000002b0: f224 f03e 2bd9 e63e fcf2 073f b4b5 ec3d
000002c0: cb45 f23d 05dd a43d 2dfa dfbb 9209 1d3e
000002d0: 0e92 ddbd ad4a 3dbd dc8f 31be a546 e0bd
000002e0: f44d 19be 8b47 55be 994b c0be ba60 c9be
000002f0: aea1 93be 37c2 86be 1016 b9bd 5530 cbbd
00000300: f003 8eba 17ed 4a3c 0b6c 363d 825a e93d
00000310: d2d1 583e bbd6 9e3e 18f0 923e b031 4a3c
00000320: c947 c33d dea2 803c 1a4c 7c3e ab7d f53d
00000330: 32ad 7b3e 3705 063d e43f 6b3d 9c32 ef3c
00000340: 6e6e 683d 8a8e 013e 1583 48be 11f4 19be
00000350: 245f a0be 98c1 b9bd c925 db3c 7a93 9c3c
00000360: 765e 993d 3656 b43c 082a d53c 0a40 083e
00000370: 8c17 a33d f630 6f3e 71f8 093e 2159 a83d
00000380: 5624 1c3e ef61 4cbe 5716 c5be 8f8b 35be
00000390: 25e4 8b3b a07d 963e c987 f5bc 0a68 1dbe
000003a0: 7c10 9f3e a270 633d 059b c6bd 094e 523e
000003b0: caaf 703e 35f9 fb3e 5f02 273e 6f76 c3be
000003c0: f9e5 7cbe b4ec 2fbe 6943 65be 2e4b 9cbe
000003d0: f6ac 97be bd71 6bbd 398e 42be 3cfe a8be
000003e0: a3ac 7fbe 5163 9a3e 3a44 023e 2fda 8ebe
000003f0: db0c 2abe 87ed b23c 20c0 5d3e 40ff a13d
-0.092934385 -0.10491074 -0.014302396 0.13382573 -0.09866684 -0.015679272 -0.010436837 0.10623866
0.08077309 -0.019931711 0.04984086 0.06215775 0.082816035 -0.04539116 -0.015404954 0.039712153
0.12769675 0.05132223 0.13798204 0.073402695 0.086407185 0.08987944 0.08754024 0.057292964
0.069656 -0.077230655 0.056946136 0.07632215 -0.06990555 -0.0008234012 -0.008688666 0.14495055
0.10543447 -0.112521514 -0.24528298 -0.032118093 0.1509689 -0.019644393 -0.039901953 -0.19902785
0.09729192 -0.0009058775 0.05668137 -0.07476388 -0.15863235 0.029718276 -0.0472441 -0.008692653
-0.07894123 -0.057362158 -0.020624625 0.1192655 0.23759302 0.13273083 0.121874504 0.1849987
0.17418364 0.07073437 0.13904908 -0.055953182 0.029717486 0.22093052 0.14628571 0.0602404
-0.18780836 0.0005047044 0.10561207 0.049994424 -0.11838817 -0.15653662 0.018145923 -0.0017896615
0.033198535 -0.027528815 -0.0007544835 -0.061184935 -0.035020426 -0.0013660187 -0.17145066 0.0055022044
-0.22210126 -0.2741687 -0.21788135 -0.2170568 -0.13283774 -0.24753033 -0.32846734 -0.17460242
-0.19475117 -0.11546992 -0.13701537 -0.27374062 -0.18322277 -0.104920074 -0.19742475 -0.21989283
-0.14756152 -0.1727556 -0.15545493 -0.14847529 0.08666981 -0.01681149 0.09746867 0.07689518
-0.053005908 -0.07012988 0.12803267 -0.00025682693 0.097809695 0.008331023 0.053685937 0.10278754
0.10639682 -0.008183994 0.04407478 0.0439529 0.0776774 0.058365315 -0.021821538 -0.034358174
-0.21394473 -0.1154477 -0.0010070833 -0.08400108 0.03448604 0.051562764 0.061551828 0.1823508
0.2626322 0.26921445 0.08610421 0.20611934 0.27376005 0.27725306 0.21636263 0.21576032
0.24731374 0.20498142 0.17133537 0.09649265 0.004851165 0.119036876 0.07341998 0.26521227
0.22928908 -0.09073843 0.026723605 0.063178174 0.21515343 0.19081123 -0.056945994 0.10679341
0.0046790275 -0.00541145 -0.12794426 -0.23723084 -0.20338881 -0.22519137 -0.11018259 -0.2015465
-0.43728587 -0.28444794 -0.32475835 -0.25652558 -0.27449685 -0.008975366 -0.024227193 0.08629615
-0.0030022475 0.04664762 0.42925745 0.43406367 0.46903187 0.4508756 0.5310514 0.115580946
0.11829718 0.08049969 -0.006835243 0.15335682 -0.10818873 -0.046213794 -0.17340034 -0.109509744
-0.14971143 -0.20828073 -0.37557676 -0.3933161 -0.2883429 -0.2632005 -0.09037411 -0.09921328
-0.0010834914 0.012385628 0.04453663 0.11394216 0.2117379 0.310232 0.28698802 0.012340948
0.09535176 0.015702661 0.24638405 0.1198686 0.24577788 0.032719817 0.057433978 0.029198937
0.05674594 0.1265203 -0.19581254 -0.1503451 -0.31322587 -0.09070128 0.026751416 0.019113291
0.0748872 0.022013765 0.026021019 0.13305679 0.079634756 0.23358521 0.13473679 0.08220125
0.15248236 -0.19959234 -0.38493606 -0.17729019 0.0042691403 0.2939272 -0.029971974 -0.15371719
0.31067264 0.055527337 -0.096975364 0.2053758 0.23504558 0.49213567 0.16309498 -0.38176295
-0.24697103 -0.17180139 -0.22388996 -0.30526108 -0.29624146 -0.057481516 -0.18999566 -0.33006465
-0.249682 0.30153897 0.12721339 -0.27900836 -0.16606466 0.021841777 0.21655321 0.07910013

bias f4 [6]
00000000: d060 2d3e d55d cc3e 8448 06bf 74cf 51be
00000010: 6ea8 e9be 9c5b 3abe
0.16931462 0.39915338 -0.524544 -0.20489293 -0.45636314 -0.18199009

weight f4 [16, 6, 5, 5]
00000000: 28d3 8bbd 2248 16be 53b3 93bd 2881 d1bd
00000010: 86cd 193d 3ca0 b4bd fadf 3ebb 33dc 61bd
00000020: b150 18bc 7034 b53c 2452 a1bc 2b4d 4dbd
00000030: 817a 883c d23f 90bb df26 a3bd 4f4e 11bb
00000040: e0f8 ae3d 7d11 d53d 1a32 d23d 0336 e53c
00000050: a168 9a3c ce4a d93d 9653 073e 21fe e13c
00000060: f1b1 0e3d 7694 84bd 67f3 4fbd 4178 ea3b
00000070: 0d49 ce3d ea22 913b f901 d6bd 0368 753c
00000080: 5bf8 89bc ce7f 4e3c fc69 b93c 9de2 85bd
00000090: ba5c 96bc 7be2 11be a192 13bd d193 5a3c
000000a0: 8be2 eebc cd96 f5bd 2dc8 debd 1728 a6bc
000000b0: 3644 f5bd 4eb1 5ebe 703c 4abe 9a34 f2bd
000000c0: e8e9 b1bd e472 1abe 21ea d8bd d876 fbbd
000000d0: acc6 a8bc 868c 3fbd bccd f8bd 076c e7bd
000000e0: 3032 39be 111e 65bd 9f41 60bd b1d7 c6bd
000000f0: 8432 35be 2d3f 2abe 5bef 2bbe e815 92bd
00000100: e2fd dbbb dc22 44be 4260 e3bd 49a9 85bd
00000110: 740c 82bc 3c6b acbd 0151 fe3c 48e8 2939
00000120: 6249 ee3c 65db 08bd a6ae 4b3b e175 213d
00000130: 9a0d b13d ca95 813d e158 42bd 5e5d a2bd
00000140: 04c1 cf3d e71b 823d 9623 59bd d09d 2f3e
00000150: 5a37 b93d 315e f03b ceec 9cbb 862f 403e
00000160: 12d2 753d 7da8 663d ce6a dc3d 7afe 913e
00000170: cb94 073e c5de 0b3e 3939 463e cb37 a53d
00000180: 150f 0c3e 82f5 12bc 627c 6d3d 12b7 163e
00000190: 0ade d43d 6939 a7bd 753c e7bd 2758 2bbd
000001a0: a21b a43d cbb4 19be 26bd 30be f77f 4bbe
000001b0: 6787 aebd e68e bf3d ddbe 81be 9da4 90be
000001c0: 3201 85bd bc15 edbc 6baf 173e f279 79bd
000001d0: 6fb6 40be 1479 2abd db3f 383d 7d6c 33bd
000001e0: 6a9d c5bd 6e99 a7bd 8793 10be 422e 67be
000001f0: 4816 a93c 72f2 8cbd c1c6 5a3d d5bf 7d3d
00000200: 4b48 8fbc c7f6 59be 1c49 32bd 6fa2 093e
00000210: e2d7 96bd 9dd6 f1bc fe8e 48be e279 d23b
00000220: 0fab 32bc 11fb 9fbd 867e 18be adec cf3d
00000230: 9786 ba3c 3f8e 34be f70f 17be 176a af3d
00000240: 4f4a 013e 0fb8 d13d d457 ac3d 3e89 683d
00000250: 29b4 25bc 85b3 95bd 7014 f93d c822 a43d
00000260: 28e6 2abe 8e4c b1bd 62f6 a8bd 71cd a93d
00000270: 462f bdbd 249f 5dbd a587 3fbd f2c1 9cbb
00000280: 37b4 af3d 2457 abbc 8e2b 1d3d 1f31 9dbd
00000290: ca20 5cbd cdaf f83b 9611 883d de57 05bc
000002a0: b7ff 17bd d3fd 043c 916c 203c c62a 8e3d
000002b0: c868 a5bc 76b0 4d3d 2b4c a63b abca 1ebe
000002c0: 65df 2bbe 2c89 5abe ad8a 30be a7cf e8bd
000002d0: fdea 37bd ff10 09be e1c6 44be 825e 12be
000002e0: 0f37 96bd ff0d a2bd eb28 73bd 8014 9cbd
000002f0: c470 6cbd e818 b1bd 7922 b6bd c6bc 7b3c
00000300: b028 3fbe 6a93 03be d869 2cbe 265c 34bc
00000310: 3ad3 04be 311e 00be 72bf 0fbe 5cf7 30be
00000320: f53c 10bd 54c4 8c3d 4105 413d e4a4 f83c
00000330: 14a8 e5bd d64e 823e 9561 173e 625e bcbd
00000340: 71e6 8ebd 7ca6 e4bd 0ca0 113e 0b8c 293c
00000350: 8262 13be 0c63 2abe 645a dfbc ad68 afbd
00000360: 56df f4bd aa51 91bd b7d7 cebd 6e58 a0bd
00000370: 507f 2dbd 49f4 a9bd de10 66bc 5189 e4bd
00000380: c5bc 54bc b023 1f3e 0899 46bd ccdd 2cbe
00000390: ce0d 07be 9954 6abe e45a 433e d42b 41bd
000003a0: cd67 09be 3f8d 50be bc5a c7bd e6c2 ebbc
000003b0: cd92 e7bd 7b1f 88bd 7da8 34be cfd9 09be
000003c0: e5e8 023c ba3a 33bd 125e 91bc 9d2a 2abd
000003d0: 4ce9 82bd 80b7 85bd de74 9b3c a095 db3c
000003e0: 9ccf 96ba d3f2 4bbd 84d3 3aba 29c9 7e3e
000003f0: edc5 4f3e 06eb babd 7dd6 753d 2385 91bb
-0.06827384 -0.14675954 -0.07211938 -0.10229713 0.037549518 -0.08819625 -0.00291252 -0.05514164
-0.009296582 0.02211973 -0.019692488 -0.05012242 0.016659977 -0.004402139 -0.079663984 -0.002217192
0.08543563 0.10403726 0.10263462 0.027979856 0.01884872 0.10609971 0.13215479 0.027586998
0.034837667 -0.06473629 -0.050769236 0.0071554487 0.10072527 0.004429211 -0.10449595 0.014978412
-0.016842058 0.012603713 0.022633545 -0.06537364 -0.018354762 -0.14246552 -0.036028508 0.013340906
-0.029160758 -0.119916536 -0.10878024 -0.020282788 -0.11975901 -0.21747324 -0.19749618 -0.11826439
-0.08687192 -0.1508289 -0.105915315 -0.12278527 -0.020602547 -0.046764873 -0.12148616 -0.112999015
-0.18085551 -0.055936877 -0.05475008 -0.097091086 -0.17695051 -0.16625662 -0.16790526 -0.071330845
-0.006713615 -0.19153923 -0.11102344 -0.06526429 -0.015875079 -0.08418891 0.031044485 0.00016203627
0.029087726 -0.033412356 0.003107944 0.03941906 0.086451724 0.06327398 -0.047448043 -0.07927965
0.10144237 0.06352978 -0.053012453 0.17150044 0.090437606 0.0073354472 -0.0047889715 0.18768129
0.06001479 0.056313027 0.10762559 0.28514463 0.13240354 0.13659199 0.19357766 0.08067282
0.13677628 -0.008969666 0.05797995 0.14718273 0.10393913 -0.08165247 -0.11290828 -0.041832116
0.08013083 -0.15010373 -0.17259654 -0.19873033 -0.0852192 0.093534276 -0.2534093 -0.2825059
-0.064943686 -0.028941028 0.1481301 -0.06090731 -0.18819593 -0.041619375 0.044982772 -0.043804634
-0.09649165 -0.08183561 -0.14118777 -0.2257624 0.020640507 -0.0688218 0.053412203 0.061950523
-0.017490527 -0.21285544 -0.043526754 0.1344087 -0.07365395 -0.02952128 -0.19585797 0.006423221
-0.010905041 -0.07811559 -0.14892015 0.10152564 0.022769256 -0.17632388 -0.14752184 0.08565157
0.12626003 0.102401845 0.084151894 0.05677151 -0.010113754 -0.07309631 0.12162101 0.080144465
-0.1668936 -0.0865718 -0.08250119 0.08291138 -0.09237532 -0.054106846 -0.04676022 -0.0047838623
0.08579295 -0.020915575 0.038371615 -0.07675385 -0.053742208 0.0075893165 0.06643979 -0.008138625
-0.037109103 0.008117157 0.009791509 0.06941752 -0.020191565 0.050217114 0.005074998 -0.15506999
-0.16784437 -0.2134139 -0.172404 -0.113677315 -0.044901837 -0.1338539 -0.19216491 -0.14293864
-0.0733472 -0.07912826 -0.059365194 -0.076210976 -0.05772473 -0.086473286 -0.08893294 0.015364831
-0.18667865 -0.12849203 -0.16837251 -0.011008298 -0.12971202 -0.12511517 -0.14037874 -0.1728186
-0.035214383 0.06873384 0.04712415 0.030352063 -0.11213699 0.25450772 0.14783318 -0.091976896
-0.06977547 -0.11164567 0.1422121 0.01034833 -0.14393046 -0.16639346 -0.027264781 -0.08564887
-0.119566604 -0.07095654 -0.10099738 -0.078293666 -0.042357743 -0.08298547 -0.014042107 -0.111590035
-0.012984459 0.15540957 -0.048485786 -0.16881484 -0.1318886 -0.22883834 0.19077641 -0.04716094
-0.13418503 -0.20366381 -0.09734103 -0.028779458 -0.11307297 -0.066466294 -0.17642398 -0.13461994
0.007990097 -0.043757178 -0.017745052 -0.041544545 -0.06392154 -0.065291405 0.018976625 0.026804745
-0.0011505964 -0.049792122 -0.0007126855 0.24881424 0.20290346 -0.091268584 0.060019005 -0.00444092

bias f4 [16]
00000000: 4507 973f a257 da3e 7efa 793e 67a7 4c3e
00000010: 16f9 11be 9c22 923e 246f 84bd 50d2 2fbf
00000020: c159 9c3b 7396 41bd 1eed 2bbe fe24 12bf
00000030: 5272 2b3e 8ac5 683e 5c21 06bf 8c7f 9ebe
1.1799093 0.42644984 0.24411961 0.19985734 -0.14255175 0.2854203 -0.06466511 -0.68680286
0.0047714417 -0.04726262 -0.16789672 -0.57087696 0.16742828 0.22731605 -0.5239465 -0.30956686

weight f4 [120, 400]
00000000: cdc0 2f3d b22d e9bc c573 4fbd f31b e43c
00000010: b534 433d 8084 07bb b74f 893c a1e4 9b3c
00000020: c2bd 2b3d b5e2 08bd cdf8 cc3b 042b 2d3c
00000030: 4231 4c3d 8ebd 7f3d 28a1 d4bc edbc 9ebc
00000040: dfe8 6c3d 7e15 893b 7c11 47bc aefa c5bc
00000050: 1a1d 8c3d 8d8f 423d cca6 2c3d 3c46 a63c
00000060: 4dfb a23c 2c62 613d 7f13 143d e710 79bd
00000070: 67af 7a3d 0adb e7bc ede0 3c3d c6a8 823d
00000080: 3c5e e43b d3a8 343b 7259 2d3d f870 6a3d
00000090: 15e5 983d 7307 c2bc 0e40 3e3d 1bb9 5c3c
000000a0: 1fc3 1a3d 6148 633b f984 5b3b 77c9 6bbc
000000b0: 061d 88bc 7b3e 54bb 18b2 823d fddc 063d
000000c0: 66e3 01bc d708 eb3c 35a6 843c 4b82 9cbd
000000d0: 3f68 b83c 43c8 b43c a3dd b9bc 41ab b8bc
000000e0: a0d2 893b 51cf 713b 96b0 c2bc 05dc ddbc
000000f0: c500 e2bc b4c1 bcbc e5fc 9fbc 5de9 943c
00000100: 5c4f 16bb e0e9 cf3c ef64 513c 3e06 28bc
00000110: 7242 4dbd f5f1 efbc a0b9 803c f139 5dbc
00000120: a728 0cbd c863 82bd d052 abbd 55a1 98bd
00000130: 9b77 adbd 8f19 5ebd 5548 4ebd 7ccc cebd
00000140: 855a 83bc 6ba9 0ebd 74d5 57bd 531b 5abd
00000150: ab3a 9fbd d7ba 53bd 0804 96bb 1081 2e3d
00000160: 6a28 b43c 619e 60bd 2947 45bd ac63 6dbc
00000170: ae23 603d 401e 0cbc 2e7d 70bd df5a b7bc
00000180: 74d1 4fbd a96d acbc 3af6 e8bc 74e1 5cbd
00000190: 9774 d43c 83a4 77bd a410 adbc a9ac 28bd
000001a0: 9986 5cbd 2702 01bd 0ce7 29bd 5898 b43c
000001b0: 7ef2 fcbc 35b2 4cbd b085 9dbb caa2 80bd
000001c0: cf5b 34bc 50f9 38bc a74b 8cbc 8e2f eebc
000001d0: 102f 0d3c dc2a 05bd bd20 dbbc dfbe 9dbd
000001e0: 6d8f 74bb 57dc 883c cda3 68bd 466e 95bd
000001f0: 802a fb3b f304 1c3d b6e8 ba3c 7631 bbbc
00000200: 9612 183d 471c 903c b840 213d aae3 d53c
00000210: 6fa8 bdba 8bee cf3c 21cf 8abd 53d0 9bbc
00000220: a32f 2ebd 52d3 223d 5c90 14bd d4fe 71bd
00000230: aec1 a7bd ce90 2cbd a02d c4bc dfc4 a1bc
00000240: f927 183c 8b4f 8ebd 8ef6 2bbd 87d6 1bbc
00000250: 01d6 383c 0632 0d3c 3223 af3c e312 993c
00000260: 1cdf d3bc ec47 7fbc f1e4 d7bc 2825 b53c
00000270: d24b c7bc 9708 cabb a676 b9bc 0071 ff3c
00000280: 9f92 5b3d cda8 c9bc a2b2 a13c bd37 96bb
00000290: 2655 57bc 6209 f6bc 97ee 94b9 4213 59bc
000002a0: 491d 18bd c500 383d 6feb 6c3c 4ea8 133d
000002b0: 4b0e 35ba 11b7 03ba 5927 36bd b351 f43c
000002c0: 5439 07bc 28a9 59bd cb82 e2bc 3180 543d
000002d0: 9e02 2abd 8eed b4bd a676 89bc 785b 933d
000002e0: a6b1 8b3d c0be 8b3c 54ef 40bc 7d8f 76bd
000002f0: 6803 fb3c 7820 a53d b85c 5bbd bf97 26bc
00000300: 3092 b5bc e5e1 9d3c 78b2 903c 3017 0bbd
00000310: 7e4b adbc 4463 4cbd 775b c83c a63a 16bd
00000320: ee73 813d e854 0cbd c485 71bd a6a7 363c
00000330: 763f 443c 2e4a 943d 53e8 4a3d 9ab7 103c
00000340: 845b 913c b164 7b3d 3755 94bc 568d 0abd
00000350: f51e 373d 175b 90bc e8cf 423d cd13 703d
00000360: be5b 093d 8e69 42bc ffc3 15bd 34fc c23c
00000370: 4037 0bbd 720e 863c 0932 9ebb ae9e c3bb
00000380: 3f8b 263d 0c11 4fbd f719 4abd 6be1 0a3d
00000390: 9815 a8bc 0585 3ebd dc78 a6bc aabd 143d
000003a0: accd fabb efd4 c33c 2a78 083d 31c7 89bc
000003b0: 08ec 8b3c 381f 7e3c ba63 f5bc 7fed 10bc
000003c0: a875 e33c 81eb 773c af7a e73b 8d1b 42bb
000003d0: 1ccd 01bd ad04 9cbc 6c16 053d 0a94 6dbb
000003e0: fe5e ecbc 9759 603c d3ff b0bd e746 30bd
000003f0: 1f83 f8bc 65ab b1bd 1f12 90bd c68b 3fbd
0.04290848 -0.028464172 -0.050647516 0.027845358 0.047657687 -0.0020678341 0.016761644 0.019029917
0.041929014 -0.03341933 0.0062552453 0.010569338 0.049851663 0.062436633 -0.025955752 -0.019377196
0.05783927 0.0041834703 -0.012150165 -0.024167385 0.06841488 0.047500182 0.042151257 0.020297162
0.01989522 0.055025265 0.036151405 -0.060807135 0.061202433 -0.028302688 0.046112943 0.06379847
0.0069692414 0.0027566447 0.04232163 0.05723664 0.07465569 -0.023685193 0.046447806 0.013471867
0.03778374 0.0034680592 0.0033496006 -0.014391295 -0.016615402 -0.0032385874 0.06381625 0.032925595
-0.007927751 0.028690739 0.016192535 -0.07642039 0.022510646 0.022068148 -0.022688692 -0.022542598
0.0042060167 0.0036897252 -0.023765843 -0.027082453 -0.027588258 -0.023041584 -0.01952977 0.018177683
-0.0022935485 0.025380075 0.012780412 -0.0102553945 -0.050112195 -0.029290179 0.015713513 -0.013502584
-0.034218457 -0.06366688 -0.083654046 -0.07452647 -0.084700786 -0.054223593 -0.05036195 -0.10097596
-0.016034374 -0.03482954 -0.0526938 -0.053248715 -0.07774862 -0.051691856 -0.0045781173 0.042603552
0.021991927 -0.054838542 -0.048163567 -0.014489096 0.054721527 -0.008552134 -0.05871313 -0.022382198
-0.05073686 -0.021048384 -0.028437722 -0.053925946 0.0259345 -0.060459625 -0.021126099 -0.041180287
-0.0538393 -0.031496193 -0.04148011 0.0220453 -0.030877348 -0.04997464 -0.0048071966 -0.062810495
-0.011008217 -0.0112899095 -0.017125918 -0.02907541 0.008617178 -0.032511577 -0.02674901 -0.077024214
-0.0037316934 0.016706629 -0.056796838 -0.072964236 0.0076649785 0.038090657 0.022816043 -0.022850733
0.0371271 0.017591609 0.03936836 0.026109535 -0.0014469753 0.0253823 -0.06777788 -0.019020235
-0.0425259 0.039752312 -0.036270484 -0.059080914 -0.08191238 -0.042130284 -0.023947537 -0.019747196
0.009286874 -0.06948765 -0.04198318 -0.0095115965 0.011281491 0.008617884 0.021379087 0.018685764
-0.025863223 -0.015581112 -0.026354285 0.022112444 -0.024328146 -0.006165575 -0.022639584 0.031181812
0.053606626 -0.024616623 0.0197385 -0.0045842812 -0.01314286 -0.030033771 -0.00028406523 -0.01324922
-0.037137304 0.04492261 0.014460429 0.03604918 -0.0006906732 -0.00050245324 -0.04447112 0.029824113
-0.008253414 -0.053139836 -0.027650258 0.051880065 -0.041506402 -0.088343725 -0.016780209 0.07195181
0.06820993 0.01705873 -0.01177581 -0.060195435 0.030641273 0.080628335 -0.05355522 -0.010168015
-0.022164434 0.019272754 0.017663226 -0.03395766 -0.021154162 -0.049899355 0.024457676 -0.036677025
0.0632094 -0.03426066 -0.05896546 0.011148369 0.011978021 0.07240711 0.049537968 0.0088328365
0.017743833 0.061375324 -0.01810704 -0.033826195 0.044707257 -0.01762156 0.047561556 0.058612633
0.033534758 -0.0118659865 -0.03656387 0.0238019 -0.033988237 0.01636431 -0.004827742 -0.005969844
0.04066014 -0.050553367 -0.04934117 0.03390638 -0.02051811 -0.046513576 -0.020321302 0.03631369
-0.0076539125 0.023905246 0.033317722 -0.016818615 0.017080322 0.015510373 -0.02995478 -0.008845686
0.027766064 0.015131832 0.0070641856 -0.0029618472 -0.03168975 -0.019045198 0.032492086 -0.0036251568
-0.02885389 0.013693235 -0.086425446 -0.043036368 -0.03033596 -0.08675269 -0.07034706 -0.046764158

bias f4 [120]
00000000: 8aaa f03d 6578 0a3b b7ef 45bd 2806 4ebd
00000010: d04b 403d c55f 983d 7eb0 8cbc b735 483c
00000020: 3b99 283c 3e6a 36bb c10d 2b3e 7e5b 213d
00000030: 238c 393d c9c9 1bbd 595f 863d a721 c23b
00000040: 7af6 46bd 2b2d fc3d 5c52 ba3c b475 9b3c
00000050: 1b9d 1b3e b8a3 683c 429f a53d a5e3 753c
00000060: f590 0e3e 7b88 ad3c 74cb 173d 8ff7 863d
00000070: 9326 d63d 4811 1b3d 139e 3dbd 7013 b7bc
00000080: f0a8 63bc 441f 2c3d 5197 83bd 262f 1fbe
00000090: 1f33 83bd 417c 1e3d 45e2 233d 78df d8bb
000000a0: 7270 4e3d fab0 263d f1bd 36bc e134 e2bc
000000b0: c8df b2bc add3 b9bd cda7 b33d 3122 463e
000000c0: 080a a93b 4564 ebbb 69cf b73c 1dd3 943d
000000d0: c17b 31bd 7a4b 5e3b 961f 44be 5565 fc3c
000000e0: d3bc b43c d744 043e 0759 64bd e2b0 f93c
000000f0: a55f debb 706f 473c d73e 8dbc 6546 28bd
00000100: 1509 5dbd 25d9 d1bc 0826 c5bc d1e3 593d
00000110: ad48 f33c 26ec d93d aef1 103d 9f26 b33d
00000120: 3161 053d 9f79 813b a309 353e 6a82 543c
00000130: c2a9 d63c 38c2 03be fbc8 6b3e 4a42 d33c
00000140: 37d4 c73c b10e c93c 1489 61bd a7e1 63bd
00000150: b8c8 d7bc 2c48 293e 8f7f d73c b31f fb3d
00000160: d9f4 c63c d3e2 bfbc 2b71 863d 8ead d5bd
00000170: 0303 bcbc f963 15be d71b 2a3e 0073 3e3d
00000180: f648 143b 62ad 973d 9233 ed3a ddb1 04bd
00000190: 995d 8c3d bbec 6dbd c06b 323d 8396 053e
000001a0: 5901 d23d c1fa 8d3d 7c35 38bd e0cc d33d
000001b0: f758 8abc 4511 2fbd a764 32bc 8270 ef3c
000001c0: 068e 743c 9c18 8c3c aafd 163c 2d2b 7f3e
000001d0: cc31 6c3d 805f e2bb 943b 47bc a850 633d
0.11751278 0.002112889 -0.048324313 -0.05029884 0.0469473 0.074401416 -0.017174002 0.012219838
0.010290439 -0.0027834321 0.16704465 0.039393894 0.04529966 -0.038034234 0.06561155 0.005924422
-0.048574902 0.123133026 0.02274435 0.018977024 0.1519665 0.01419919 0.08087017 0.015007888
0.13922484 0.021183243 0.037059262 0.06590187 0.10456576 0.037858278 -0.04629333 -0.022348136
-0.013895258 0.042022005 -0.06425346 -0.1554533 -0.06406235 0.038692717 0.04001071 -0.0066184364
0.050400205 0.04069612 -0.011153684 -0.027613105 -0.021835223 -0.09073577 0.0877224 0.1934898
0.0051586665 -0.007183584 0.022437768 0.07266829 -0.04333091 0.00339195 -0.19152674 0.030810038
0.022062695 0.12916885 -0.055748966 0.030479852 -0.006786304 0.012172565 -0.017241878 -0.04108276
-0.05396374 -0.025616238 -0.024065986 0.05319578 0.02969774 0.10640745 0.035386734 0.08747601
0.032563392 0.003951266 0.17679457 0.012970546 0.026203994 -0.12867057 0.23025887 0.025788445
0.024393184 0.024543138 -0.05506237 -0.05563512 -0.026340827 0.16531438 0.026305942 0.122619055
0.024286674 -0.023423588 0.06564554 -0.104334936 -0.022950655 -0.14588918 0.16612183 0.04649639
0.0022626496 0.07406117 0.0018097034 -0.032396186 0.0685379 -0.058087092 0.04355979 0.13045697
0.10254163 0.06932593 -0.04497288 0.10341811 -0.016888125 -0.04274108 -0.010888255 0.029228453
0.014926439 0.017101578 0.009215752 0.24918814 0.057664678 -0.006908357 -0.012160201 0.05549684

weight f4 [84, 120]
00000000: a6d5 b7bc 9c3f 003c 830b b5bd 12bd b03d
00000010: 6fcc cb3c 5330 633c f9cf cf3c 1c1e 8dbd
00000020: b926 003e 7004 16bd cd34 8bbc 04f3 78bd
00000030: 8d7a 0f3c ec24 86bd c401 e0bc 16a7 333d
00000040: be9f a73c 29ae 03be 0220 013d 52d9 d43c
00000050: 3fd2 5bbc 3375 3e3d 1eb9 52bd ced1 81bd
00000060: 6ef9 f73c 0f00 3fbd 7990 c2bc 8e45 7abd
00000070: 0310 67bd 3529 64bd d505 903c 240a 563c
00000080: ad53 923d 44b8 6ebd 4aed a83d 953d b23d
00000090: e771 5bbd 1105 7bbd 3dcf f7bd 7342 55bd
000000a0: 0b07 683c 5188 bbbd 51a7 a13d 14c8 bbbd
000000b0: 3303 3dbd 9f0c 3dbb 33b3 463d 0910 723d
000000c0: 6f4d 0e3d 5372 8d3c 1664 84bc 1532 6ebd
000000d0: ef2f f6bd 4d7d 623d cd49 7b3d 9109 9b3d
000000e0: fa12 3cbd 4fa7 b4bc 4554 c23d 6036 0d3c
000000f0: 9491 4c3d a505 863c d620 793c 939a 063e
00000100: 2834 fe3b 71ad 30bd eefc 5e3c 9e66 10bd
00000110: 84ae d6bd e62d 90bd 26e5 32bd f2e8 813d
00000120: 40de 3dbd 45dd c5bd eb1e 14bd b840 8d3d
00000130: ae7d 68bd 0377 20be 41cf 51bd 220c 0f3d
00000140: 77d6 cdbc 4d34 a13d df23 3ebd c2a4 813d
00000150: a87c 323c 124d fcbd 156f 9bbc c2ce a4bd
00000160: ffee 0e3d 963f 913c 1b00 0ebe a5b3 8dbd
00000170: d705 043c a63f 533d 1b45 d33c 575d bfbd
00000180: ab88 8cbd f548 9fbd 41b5 bc3b 700c 1f3d
00000190: 2698 423d acc4 a5bd b3c3 883d 694a 613d
000001a0: 82c9 47bd 36cd 463d a505 94bd 36e4 13bd
000001b0: 3cf6 873d 8ce8 8bbc ebc1 4dbd cd16 b3bd
000001c0: 9729 4bbd 66c3 9cbd 070c 4bbd 7ab2 26bc
000001d0: d166 0f3c cfed a73d d774 30bc 13e3 733c
000001e0: 2c92 b73d 9751 d73c 8ead 7a3d 8eb6 1cb6
000001f0: 6d16 193d 5997 b13c 369c 88bd 300b 06be
00000200: 54cc 26bd 800d 7dbd 824a 293d 57e5 53bd
00000210: fa9b 983d d104 42bd 9c19 58bc 3593 463d
00000220: 8263 0bbe 9c18 72bd 4cf4 ec3c 4980 97ba
00000230: c152 31bd 504d 383d a461 5fbd 4684 523a
00000240: 6dfb 7c3d 6621 103d 9600 993c 50c3 9b3d
00000250: 9790 f63c 156b be3c b4ba f4bd 2d01 95bd
00000260: 92f1 d13c 1bbe 053d 2650 123c 9453 87bd
00000270: 1876 743d c9d6 afbc d204 15bd b6ba b8bd
00000280: 4f0b 89bd bda6 cb3c a7f8 aa3d 84bf b9bd
00000290: 9396 4a3d 55c5 dabd aae8 863d 5bd6 9e3c
000002a0: 3753 843d ecdf 6ebd 7208 47bd 292e 1dba
000002b0: ffb2 0fbd defc 933d 2a2b 61bc 1f80 923c
000002c0: d38f 7cbd c856 a43d 52a4 933c 6fe0 a5bd
000002d0: 27ed 733d 67d5 8dbd 741e 4a3d 8583 96bc
000002e0: 150f dc3c 1632 b13c fa3c 883d f32f de3d
000002f0: 9500 7fbc b04f 973c 5831 e43a 4883 cfbd
00000300: 3992 a53d d436 f53c d623 8a3c 0d21 88bc
00000310: a874 d1bc 5374 0fbe 573f 9c3d 9930 ab3d
00000320: 8417 63bd 642b 03bd 1d07 1cbc f528 02be
00000330: c85d 6d3c 9050 a5bd 3086 a7bc 03ce 5a3d
00000340: d3f8 833d 3944 18bb 776b fe3c 2d94 863d
00000350: 96da 60bc f15e 5dbc c2a7 78bd 934f 69bd
00000360: 3d14 493d b889 3bbc f47f f63c a124 8bbd
00000370: 1703 b4bd caec 67bd 86ed 41bd 5421 653d
00000380: f35a 403b 34f3 28bc c4c8 48bd 701e 813d
00000390: 5425 9dbd 860f c6bb 16fd f03d ccc4 99bb
000003a0: 301c a43d 5292 58bd 711f 0f3d e762 873d
000003b0: ed9b 0d3e ffd7 93bc 32ab a8bd aab8 8dbd
000003c0: def8 bf3d 955d aebd 0dbf 99bd ce71 52bd
000003d0: 4eb2 34bb c54b 463d 07ac 133e 02d3 853c
000003e0: 6185 693c 27b2 96bc bb71 543b 4d94 203c
000003f0: 7ce9 b03d 0241 89bc b00c 30be 4c88 e43c
-0.022440743 0.007827666 -0.08840086 0.08629812 0.024877755 0.013866502 0.025367724 -0.068905085
0.12514772 -0.036625326 -0.01699295 -0.060778633 0.008757246 -0.06550011 -0.027344592 0.043860517
0.020461913 -0.12859406 0.031524666 0.025982533 -0.013416826 0.04649849 -0.051446073 -0.06338845
0.030270305 -0.046630915 -0.02375053 -0.06110149 -0.056411754 -0.05570336 0.017580906 0.013063941
0.07144866 -0.0582812 0.08248384 0.08703152 -0.053575423 -0.06128413 -0.121000744 -0.052065324
0.014161835 -0.0915686 0.07893241 -0.09169021 -0.04614563 -0.0028846634 0.04851074 0.059097324
0.034741815 0.017266428 -0.016161006 -0.05815323 -0.12020861 0.055295277 0.06134968 0.07570184
-0.045916535 -0.022052435 0.094887294 0.008618921 0.04994352 0.016360113 0.015205583 0.13144903
0.0077576824 -0.043134157 0.013610108 -0.035254113 -0.10482505 -0.070400044 -0.043675564 0.06343259
-0.046354532 -0.096613444 -0.0361623 0.0689711 -0.056760482 -0.156704 -0.051223043 0.03492368
-0.025126679 0.07871304 -0.046420928 0.06330253 0.010893978 -0.123193875 -0.018973866 -0.080472484
0.034895893 0.017730515 -0.13867228 -0.0691903 0.008058033 0.05157437 0.025789788 -0.09343975
-0.06862005 -0.07777587 0.005758912 0.03883022 0.04750838 -0.08094153 0.06677952 0.055002604
-0.048776157 0.04853555 -0.07227639 -0.03610631 0.06638762 -0.01707866 -0.050233763 -0.08744583
-0.04960021 -0.07654457 -0.049572017 -0.010174388 0.008752541 0.08199655 -0.010770044 0.014885682
0.08963427 0.026284022 0.06120067 -2.3352072e-06 0.037374903 0.021678613 -0.0667042 -0.13090205
-0.040722206 -0.061780453 0.04133082 -0.051732387 0.07451625 -0.047367875 -0.0131896995 0.04848023
-0.13612178 -0.0591055 0.028925084 -0.0011558618 -0.04329181 0.044995606 -0.054536477 0.00080305745
0.061763216 0.0351881 0.018677037 0.07605612 0.030098243 0.02324442 -0.11949673 -0.07275615
0.025627885 0.032652 0.008930242 -0.06607738 0.059682935 -0.021464722 -0.03638155 -0.09019987
-0.0669161 0.02485978 0.08348208 -0.09069732 0.049460005 -0.10682169 0.06587346 0.019389322
0.064611845 -0.058319017 -0.04859204 -0.0005995953 -0.035082813 0.07225965 -0.013743201 0.017883359
-0.0616606 0.08024365 0.01802269 -0.08099448 0.059552338 -0.06925469 0.04934545 -0.01837326
0.02686266 0.021630328 0.06652255 0.10848989 -0.015564104 0.018470615 0.0017409725 -0.10132462
0.080845304 0.02993337 0.016862791 -0.016617322 -0.025568321 -0.14009218 0.076292686 0.08358879
-0.055442348 -0.032023802 -0.00952318 -0.12710936 0.014487691 -0.08072007 -0.020449728 0.053419124
0.06443944 -0.0023234023 0.031057103 0.06571231 -0.01372399 -0.013511405 -0.06070686 -0.056960654
0.049091566 -0.011446409 0.03009031 -0.06794096 -0.08789652 -0.056622304 -0.04734566 0.055939987
0.0029351085 -0.01031189 -0.04901959 0.063046336 -0.076731354 -0.006044331 0.11767022 -0.0046926495
0.08013189 -0.052873917 0.034942094 0.06610661 0.13829012 -0.01804733 -0.08235778 -0.069199875
0.093736395 -0.08513943 -0.07507143 -0.051378064 -0.0027572098 0.048412103 0.14421092 0.016335968
0.014252991 -0.018395497 0.0032416421 0.009800983 0.086382836 -0.016754631 -0.1719234 0.027897023

bias f4 [84]
00000000: e2e6 b63c 7493 3a3e 2758 abbc 6a27 bd3d
00000010: 08c8 9a3d aa73 d83d 2ecb 8dbd caaa 603e
00000020: 1bed b93e 3db2 813e af78 923d 3de4 28bd
00000030: 62dc 51bd 0cb6 cd3d 1c34 dfbd 3178 93bd
00000040: a25c dabc 2975 f0bd 4309 f0bb ccd2 b6bd
00000050: 5fa3 303e 4d77 8abc ebf9 933e f011 3e3e
00000060: 28db 7f3d 9426 233d b71b 823e 7a0a 333e
00000070: 31dc c63d 7ec7 10be 9ecb 263e f43d 533d
00000080: 175f 00be ee9d 30bd a8d4 a53e 58d0 ddbd
00000090: a0d1 033d eb1b 523d 587f ed3d acc5 82bd
000000a0: 9a29 8e3d 8b1c 903c c689 4bbd 9543 323e
000000b0: 4d23 ea3d 22a0 81bd 01ab 153e 16d5 953d
000000c0: 70dd 9f3d 66c1 40bd ea36 68be e9b9 113e
000000d0: 8caa ad3d 1afc 4cbd ee32 20bd 2ed8 853c
000000e0: 786a 9abc 3fe3 9e3d 25f7 2d3e 6482 f0bc
000000f0: e7d9 853d aca0 293b 9b44 b43e 88b7 8a3b
00000100: 40c0 a93c ff66 16be 7ca3 98bb 1643 bfbd
00000110: fd1f c93d 4e85 583e 81e6 3bbe d9a4 883e
00000120: 6c7a 483e 7818 8e3d 607d 953e d0f5 43bd
00000130: 1db7 223e 2d4b 21bd 9ab4 a83d 97ae f83c
00000140: 30f5 bfbc 474e e7bc 1293 bcbd 58d0 753e
0.02232689 0.18220311 -0.020916058 0.09236033 0.07557684 0.10568936 -0.06923519 0.21940151
0.3631371 0.25331298 0.07151925 -0.04123329 -0.051235564 0.10044488 -0.10898611 -0.07200659
-0.026655499 -0.117410965 -0.007325323 -0.08926925 0.17249821 -0.01690259 0.2890161 0.1856153
0.062464863 0.039831713 0.2541177 0.17484465 0.09709967 -0.141386 0.16288611 0.051572755
-0.12536274 -0.043119363 0.32388806 -0.10830754 0.032182336 0.051296156 0.115965545 -0.06385359
0.069415286 0.017591735 -0.049691938 0.17408593 0.11432514 -0.06329371 0.14616014 0.073160335
0.07805908 -0.04705944 -0.22677198 0.14231075 0.08479795 -0.05004511 -0.03911107 0.016338434
-0.018849596 0.077581875 0.1698881 -0.02935905 0.06535702 0.0025883121 0.35208592 0.0042333044
0.020721555 -0.14687727 -0.0046581607 -0.093389675 0.098205544 0.21144602 -0.18349649 0.2668827
0.1957795 0.06938261 0.29197216 -0.047841847 0.15890165 -0.039378334 0.08237572 0.030356688
-0.023432344 -0.028235568 -0.09207739 0.24005258

weight f4 [10, 84]
00000000: c06d 5ebd 4b2b 99bb 1f68 473e 81c8 293d
00000010: fec4 d8bc 9ea4 5abe 29fa 6fbd 369a 793e
00000020: b1c4 5c3e c010 863e 1264 efbd 41c8 4b3c
00000030: 11ae 9bbd ca94 af3b fdaa 1c3d b427 093e
00000040: 3151 c33b 9ed6 2dbe be7a 00be 9fdc 9abd
00000050: 9f45 44be 44f7 833e f056 75bd b663 e33b
00000060: 1e4a 6b3d 3c02 7a3e def5 07bc 92e8 573d
00000070: c066 0ebd 81a0 1e3e 2712 cbbb a834 a93d
00000080: e9f7 bebd 8c5e 003d 4846 0dbd 2519 f03d
00000090: 12e9 003e 0c46 a73d 3039 703e af85 cbbd
000000a0: a8a2 5dbd 575e b13c 9a0f f3bd 32b6 553d
000000b0: 90f4 50be ada6 613e 3568 4ebe cb89 3abe
000000c0: 25b7 36bd 984e d83d f356 183e e4b2 67be
000000d0: 1b83 03be 217c 513e 9ed8 c5bd 2d8a 91ba
000000e0: d1c0 9c3d 707e 2ebd 2fd5 e7bd 48b3 393c
000000f0: 20ee e2bd cc87 d2bd f1e0 a53e b1fd 85bd
00000100: 68fc f0bd 2e30 b2bc 2159 be3c f9fb 4d3d
00000110: 0193 04be 0a73 ed3c 1775 283d c0a6 083e
00000120: d3dd bc3d 1c65 ee3d 4d2b 21bd 77da 813e
00000130: 0be9 0f3d cec1 803d 2aa8 0dbe 9498 d5bc
00000140: 4f2d e73c ee3c 4c3d ff9b 173e 704a 8ebe
00000150: 4935 e73d 7ed2 37bd 55b8 d53c 0447 5abd
00000160: 37b5 ab3d e2a6 ff3c d284 bc3d 1592 83be
00000170: c930 71be 47b8 00be e0c4 94bd 7524 f13d
00000180: fc1c 47bd 5c5e 373d 7142 b83d 9682 6b3e
00000190: 6208 f1bc ecad 0f3e be19 e0bd 6e80 52bd
000001a0: bcd8 d93b d9d5 f3bd 840e 22be 47a0 33be
000001b0: d4a7 073e 4a9b 023d d581 9cbe 648c 423e
000001c0: fbe1 b4bd 5a19 d63d 951c b5bd ae1d bb3e
000001d0: 59ca d33d 0218 9cbd 1e6f 01be 5ac4 763e
000001e0: f326 a33c 5291 8fbd 3f73 20be b9df a53d
000001f0: 7ca4 90be ba34 af3e 7197 2fbd bc6a b83d
00000200: 021e 203d fa9b 97bd 128f 97bd 49cd 3bbe
00000210: 345e d13d 9098 953d fed2 033e 1251 06be
00000220: cf9d cc3d 2a5a 2dbd d9ce 82bb c097 3a3d
00000230: eceb 04bd 9455 c0bd 60a4 9ebe 0bff da3b
00000240: 2d70 00be d544 d5bc df52 973d 8b2b 59bd
00000250: d54e a83d 9a68 323e 77d1 cdbd d117 203d
00000260: d199 2a3e ec07 6ebe 80ce 97bd 6593 cabd
00000270: 7a08 d33d 5cc2 ccbc f078 4cbd b8d3 34be
00000280: 0ad1 d83d b23e 4abd 91ab f3bd 489a 223d
00000290: 0d24 553e 81d8 c23d 3fa8 a73d 5cb5 c1be
000002a0: a44c 6dbe 24ff 8f3d e8c2 15be 1510 dbbd
000002b0: df23 853d 7f43 07bc 21a9 dd3d 95d7 833d
000002c0: b3ed 4e3e 7d8b 243e eeba 793d bcad 88bd
000002d0: 797c e5bd 50bd e5bd 318c 46bd 3e5f 753d
000002e0: c1e3 fbbc b3ad a8bd 8b8e b43d be0f bc3c
000002f0: 106a a1bc 101b 113e 50ac 17bd 5c22 d33d
00000300: 7aae 7abd 6df0 f63c 68ac 9e3e 0de6 8c3d
00000310: d057 ed3d 16c9 11bd 0f5f 103e 095b 92bd
00000320: aea0 84bd d93b c23d 8c68 263e d07b f53c
00000330: 3463 9ebd 5380 fbbd 65e8 3f3d 41f3 6cbd
00000340: bb02 143e 1877 61be 12ff 0a3e 7127 cebd
00000350: 6434 723d e955 1f3d 3e37 26be 7485 32bd
00000360: f580 2dbe b47c 503c 43f3 4ebd a14b 583d
00000370: bdd1 903d b83f 053d aa98 483e c0ba 15bd
00000380: 0c12 d63d 6181 1b3d 0a8e 273e 0d96 d33d
00000390: a917 673e 4392 923d 1759 133e b575 153c
000003a0: dd24 493c 1547 f2bc 220b 723d e233 b63d
000003b0: 6c01 d1bd 4a17 a3bc 4ffa 36be a558 84bd
000003c0: c137 92bd c4a3 aa3e 19b7 48be a308 b13c
000003d0: 8ee1 373d 1783 d43d 5b74 dcbd e83c e63d
000003e0: cc13 8bbd 4072 af3d d6d0 d13d 935e e53d
000003f0: 630d 14be 267a 8dbd 899b aebd 48c5 19be
-0.054303885 -0.0046743504 0.19473313 0.04145098 -0.02646112 -0.21351859 -0.05858818 0.24375233
0.21559407 0.26184654 -0.11689009 0.012437881 -0.0760156 0.005358313 0.038249005 0.13394052
0.0059606065 -0.16976401 -0.12546822 -0.075616114 -0.19167183 0.25774586 -0.059897363 0.0069393767
0.05744373 0.24414915 -0.008298365 0.05271203 -0.03476596 0.15490915 -0.0061972323 0.082619965
-0.09324629 0.031340167 -0.034490854 0.11723546 0.1258891 0.08167657 0.23459315 -0.099376075
-0.0541102 0.02165143 -0.1186821 0.052175708 -0.20405793 0.22036238 -0.2015694 -0.18216626
-0.044608254 0.105618656 0.14876918 -0.22626835 -0.12842982 0.20457508 -0.09660457 -0.0011103802
0.07653964 -0.04260105 -0.113199584 0.011334248 -0.11080575 -0.102798074 0.3239818 -0.065425284
-0.11766893 -0.02175149 0.02323586 0.050289128 -0.12946703 0.028985519 0.04112729 0.1334486
0.09221997 0.11640379 -0.039347935 0.25361988 0.035134356 0.06286965 -0.13833681 -0.026073731
0.028219847 0.049862795 0.14805602 -0.27791166 0.1128946 -0.044878475 0.026088873 -0.053290382
0.08384173 0.031207506 0.09205021 -0.2569739 -0.23553766 -0.12570296 -0.072641134 0.11774532
-0.048611626 0.044767722 0.08997048 0.22999033 -0.029422943 0.1403119 -0.1094241 -0.05139201
0.006648151 -0.119060226 -0.1582585 -0.1754161 0.13247615 0.031886376 -0.30567804 0.18998867
-0.08832165 0.10454054 -0.08843342 0.3654608 0.10341329 -0.076217666 -0.12640044 0.2409834
0.019916033 -0.070101395 -0.15668963 0.08099312 -0.28250492 0.34219915 -0.042869035 0.09004733
0.039091118 -0.07402797 -0.07400335 -0.18340029 0.10223046 0.073044896 0.12873456 -0.13116863
0.09991037 -0.042322315 -0.0039919433 0.045554876 -0.032451555 -0.09391323 -0.30984783 0.0066832355
-0.12542792 -0.026033798 0.07388853 -0.05302004 0.08218161 0.17422715 -0.10049718 0.039085213
0.16660239 -0.2324521 -0.074124336 -0.098913945 0.10304351 -0.024995022 -0.049920022 -0.1765889
0.10586746 -0.049376197 -0.11897958 0.039697915 0.20814534 0.09513951 0.08186387 -0.3783368
-0.23173767 0.07031086 -0.14625132 -0.10696427 0.065009825 -0.008255838 0.108232744 0.064376034
0.20207863 0.16068836 0.060969286 -0.06673762 -0.11205382 -0.11217749 -0.04847354 0.059905283
-0.03074825 -0.082362555 0.088162504 0.022956725 -0.019703895 0.1417048 -0.037029564 0.10309288
-0.06120155 0.03014394 0.3099091 0.06879816 0.115890145 -0.03559216 0.14098762 -0.0714627
-0.0647596 0.09484071 0.16250819 0.029966265 -0.07733765 -0.12280335 0.046852488 -0.057849173
0.14454167 -0.22018087 0.13573864 -0.100661166 0.059131995 0.03890029 -0.1623201 -0.043584302
-0.16943724 0.012725044 -0.05052496 0.0528065 0.070712544 0.03253147 0.19589487 -0.03655505
0.10452661 0.037965182 0.16362777 0.10331354 0.2256762 0.071568035 0.14389454 0.009122302
0.012276855 -0.02957491 0.05909265 0.088966146 -0.10205349 -0.019908566 -0.17868923 -0.0646222
-0.071395405 0.33328068 -0.19601096 0.021610564 0.04489284 0.10376566 -0.107643805 0.11242086
-0.06790885 0.08566713 0.102449104 0.11199679 -0.14458232 -0.069080636 -0.0852576 -0.15016663

bias f4 [10]
00000000: e7de 1fbe ae06 f2be 59f9 b73d 1c49 913e
00000010: c33a 113f 1103 30be 1005 9d3d 2817 a4be
00000020: fea4 953e d5b8 a8be
-0.15612374 -0.4727072 0.08983106 0.2837609 0.5673029 -0.1718867 0.07666981 -0.32048917
0.29227442 -0.32953516
